…
al_norm=False, resume=None, dataset_path='./data/shapenet.hdf5', categories=['table'], scale_mode='shape_unit', train_batch_size=64, val_batch_size=64, lr=0.002, weight_decay=0, max_grad_norm=10, end_lr=0.0001, sched_start_epoch=200000, sched_end_epoch=400000, seed=2020, logging=True, log_root='./logs_gen', device='cuda', max_iters=inf, val_freq=1000, test_freq=30000, test_size=400, tag=None)
[2022-04-07 14:27:19,101::train::INFO] Loading datasets...
[2022-04-07 14:27:19,646::train::INFO] Building model...
[2022-04-07 14:27:19,826::train::INFO] FlowVAE(
  (encoder): PointNetEncoder(
    (conv1): Conv1d(3, 128, kernel_size=(1,), stride=(1,))
    (conv2): Conv1d(128, 128, kernel_size=(1,), stride=(1,))
    (conv3): Conv1d(128, 256, kernel_size=(1,), stride=(1,))
    (conv4): Conv1d(256, 512, kernel_size=(1,), stride=(1,))
    (bn1): BatchNorm1d(128, eps=1e-05, momentum=0.1, affine=True, track_running_stats=True)
    (bn2): BatchNorm1d(128, eps=1e-05, momentum=0.1, affine=True, track_running_stats=True)
    (bn3): BatchNorm1d(256, eps=1e-05, momentum=0.1, affine=True, track_running_stats=True)
    (bn4): BatchNorm1d(512, eps=1e-05, momentum=0.1, affine=True, track_running_stats=True)
    (fc1_m): Linear(in_features=512, out_features=256, bias=True)
    (fc2_m): Linear(in_features=256, out_features=128, bias=True)
    (fc3_m): Linear(in_features=128, out_features=256, bias=True)
    (fc_bn1_m): BatchNorm1d(256, eps=1e-05, momentum=0.1, affine=True, track_running_stats=True)
    (fc_bn2_m): BatchNorm1d(128, eps=1e-05, momentum=0.1, affine=True, track_running_stats=True)
    (fc1_v): Linear(in_features=512, out_features=256, bias=True)
    (fc2_v): Linear(in_features=256, out_features=128, bias=True)
    (fc3_v): Linear(in_features=128, out_features=256, bias=True)
    (fc_bn1_v): BatchNorm1d(256, eps=1e-05, momentum=0.1, affine=True, track_running_stats=True)
    (fc_bn2_v): BatchNorm1d(128, eps=1e-05, momentum=0.1, affine=True, track_running_stats=True)
  )
  (flow): SequentialFlow(
    (chain): ModuleList(
      (0): CouplingLayer(
        (net_s_t): Sequential(
          (0): Linear(in_features=128, out_features=256, bias=True)
          (1): ReLU(inplace=True)
          (2): Linear(in_features=256, out_features=256, bias=True)
          (3): ReLU(inplace=True)
          (4): Linear(in_features=256, out_features=256, bias=True)
        )
      )
      (1): CouplingLayer(
        (net_s_t): Sequential(
          (0): Linear(in_features=128, out_features=256, bias=True)
          (1): ReLU(inplace=True)
          (2): Linear(in_features=256, out_features=256, bias=True)
          (3): ReLU(inplace=True)
          (4): Linear(in_features=256, out_features=256, bias=True)
        )
      )
      (2): CouplingLayer(
        (net_s_t): Sequential(
          (0): Linear(in_features=128, out_features=256, bias=True)
          (1): ReLU(inplace=True)
          (2): Linear(in_features=256, out_features=256, bias=True)
          (3): ReLU(inplace=True)
          (4): Linear(in_features=256, out_features=256, bias=True)
        )
      )
      (3): CouplingLayer(
        (net_s_t): Sequential(
          (0): Linear(in_features=128, out_features=256, bias=True)
          (1): ReLU(inplace=True)
          (2): Linear(in_features=256, out_features=256, bias=True)
          (3): ReLU(inplace=True)
          (4): Linear(in_features=256, out_features=256, bias=True)
        )
      )
      (4): CouplingLayer(
        (net_s_t): Sequential(
          (0): Linear(in_features=128, out_features=256, bias=True)
          (1): ReLU(inplace=True)
          (2): Linear(in_features=256, out_features=256, bias=True)
          (3): ReLU(inplace=True)
          (4): Linear(in_features=256, out_features=256, bias=True)
        )
      )
      (5): CouplingLayer(
        (net_s_t): Sequential(
          (0): Linear(in_features=128, out_features=256, bias=True)
          (1): ReLU(inplace=True)
          (2): Linear(in_features=256, out_features=256, bias=True)
          (3): ReLU(inplace=True)
          (4): Linear(in_features=256, out_features=256, bias=True)
        )
      )
      (6): CouplingLayer(
        (net_s_t): Sequential(
          (0): Linear(in_features=128, out_features=256, bias=True)
          (1): ReLU(inplace=True)
          (2): Linear(in_features=256, out_features=256, bias=True)
          (3): ReLU(inplace=True)
          (4): Linear(in_features=256, out_features=256, bias=True)
        )
      )
      (7): CouplingLayer(
        (net_s_t): Sequential(
          (0): Linear(in_features=128, out_features=256, bias=True)
          (1): ReLU(inplace=True)
          (2): Linear(in_features=256, out_features=256, bias=True)
          (3): ReLU(inplace=True)
          (4): Linear(in_features=256, out_features=256, bias=True)
        )
      )
      (8): CouplingLayer(
        (net_s_t): Sequential(
          (0): Linear(in_features=128, out_features=256, bias=True)
          (1): ReLU(inplace=True)
          (2): Linear(in_features=256, out_features=256, bias=True)
          (3): ReLU(inplace=True)
          (4): Linear(in_features=256, out_features=256, bias=True)
        )
      )
      (9): CouplingLayer(
        (net_s_t): Sequential(
          (0): Linear(in_features=128, out_features=256, bias=True)
          (1): ReLU(inplace=True)
          (2): Linear(in_features=256, out_features=256, bias=True)
          (3): ReLU(inplace=True)
          (4): Linear(in_features=256, out_features=256, bias=True)
        )
      )
      (10): CouplingLayer(
        (net_s_t): Sequential(
          (0): Linear(in_features=128, out_features=256, bias=True)
          (1): ReLU(inplace=True)
          (2): Linear(in_features=256, out_features=256, bias=True)
          (3): ReLU(inplace=True)
          (4): Linear(in_features=256, out_features=256, bias=True)
        )
      )
      (11): CouplingLayer(
        (net_s_t): Sequential(
          (0): Linear(in_features=128, out_features=256, bias=True)
          (1): ReLU(inplace=True)
          (2): Linear(in_features=256, out_features=256, bias=True)
          (3): ReLU(inplace=True)
          (4): Linear(in_features=256, out_features=256, bias=True)
        )
      )
      (12): CouplingLayer(
        (net_s_t): Sequential(
          (0): Linear(in_features=128, out_features=256, bias=True)
          (1): ReLU(inplace=True)
          (2): Linear(in_features=256, out_features=256, bias=True)
          (3): ReLU(inplace=True)
          (4): Linear(in_features=256, out_features=256, bias=True)
        )
      )
      (13): CouplingLayer(
        (net_s_t): Sequential(
          (0): Linear(in_features=128, out_features=256, bias=True)
          (1): ReLU(inplace=True)
          (2): Linear(in_features=256, out_features=256, bias=True)
          (3): ReLU(inplace=True)
          (4): Linear(in_features=256, out_features=256, bias=True)
        )
      )
    )
  )
  (diffusion): DiffusionPoint(
    (net): PointwiseNet(
      (layers): ModuleList(
        (0): ConcatSquashLinear(
          (_layer): Linear(in_features=3, out_features=128, bias=True)
          (_hyper_bias): Linear(in_features=259, out_features=128, bias=False)
          (_hyper_gate): Linear(in_features=259, out_features=128, bias=True)
        )
        (1): ConcatSquashLinear(
          (_layer): Linear(in_features=128, out_features=256, bias=True)
          (_hyper_bias): Linear(in_features=259, out_features=256, bias=False)
          (_hyper_gate): Linear(in_features=259, out_features=256, bias=True)
        )
        (2): ConcatSquashLinear(
          (_layer): Linear(in_features=256, out_features=512, bias=True)
          (_hyper_bias): Linear(in_features=259, out_features=512, bias=False)
          (_hyper_gate): Linear(in_features=259, out_features=512, bias=True)
        )
        (3): ConcatSquashLinear(
          (_layer): Linear(in_features=512, out_features=256, bias=True)
          (_hyper_bias): Linear(in_features=259, out_features=256, bias=False)
          (_hyper_gate): Linear(in_features=259, out_features=256, bias=True)
        )
        (4): ConcatSquashLinear(
          (_layer): Linear(in_features=256, out_features=128, bias=True)
          (_hyper_bias): Linear(in_features=259, out_features=128, bias=False)
          (_hyper_gate): Linear(in_features=259, out_features=128, bias=True)
        )
        (5): ConcatSquashLinear(
          (_layer): Linear(in_features=128, out_features=3, bias=True)
          (_hyper_bias): Linear(in_features=259, out_features=3, bias=False)
          (_hyper_gate): Linear(in_features=259, out_features=3, bias=True)
        )
      )
    )
    (var_sched): VarianceSchedule()
  )
)
[2022-04-07 14:27:19,829::train::INFO] Start training...
[2022-04-07 14:27:22,465::train::INFO] [Train] Iter 0001 | Loss 61.591423 | Grad 4.8665 | KLWeight 0.0010
[2022-04-07 14:27:22,551::train::INFO] [Train] Iter 0002 | Loss 61.707390 | Grad 4.3022 | KLWeight 0.0010
[2022-04-07 14:27:22,635::train::INFO] [Train] Iter 0003 | Loss 61.525818 | Grad 2.8376 | KLWeight 0.0010
…
